Assets/Models/Paper.onnx (onnx, 148716 bytes, 11 tensors)

network_body.observation_encoder.processors.0.normalizer.running_mean f4 [16]
000000 3e e9 02 3f c9 68 5e 39 37 d5 2e 3a 4d ae fa 3e
       0.5113715 0.00021210605 0.0006669345 0.48961106
000010 2e ef f6 3c 9f 1f e3 3e 2a af dd 3d 3f 5c 37 3e
       0.030143347 0.44360062 0.108244255 0.17906283
000020 1b 82 72 3f 1e a5 6e 3f 2d 7d 6b 3f ce d2 6b 3f
       0.94729775 0.932207 0.9198788 0.9211854
000030 ca b8 65 3f 9d 6d 6a 3f 26 33 68 3f 18 ae 6a 3f
       0.8973509 0.91573507 0.90703046 0.91671896

network_body._body_endoder.seq_layers.0.weight f4 [128, 16]
000000 31 4e 82 3e 02 d2 30 3b d9 7d 31 bd b3 77 a6 bd
       0.2545028 0.0026980643 -0.04333291 -0.081282996
000010 0c 98 43 bd 95 c7 ad 3d f9 79 49 be 26 f3 98 bd
       -0.047752425 0.08485333 -0.19675435 -0.07468252
000020 95 63 53 bc c7 de 87 3e 6b 69 82 3e 54 b3 a6 be
       -0.01290216 0.26537153 0.25471053 -0.32558692
000030 fa b8 1b be d6 19 d3 3d 01 f4 0b be cb e2 83 3e
       -0.15207282 0.10307662 -0.13667299 0.25758967
000040 22 6d de bd 36 2f 86 3d c9 9e 3e bd 10 57 e7 3e
       -0.10860659 0.065519735 -0.046538148 0.4518361
000050 59 81 c2 3d ba bd 59 be 44 f9 b8 3d ce 62 fb 3d
       0.09497327 -0.21263781 0.09031919 0.12274705
000060 34 ce d5 be f4 f8 57 3e 8f a8 0c 3f 89 f2 03 3c
       -0.41758883 0.21091062 0.549447 0.00805343
000070 c6 22 b4 bd 42 d7 a2 be 45 4b 07 3f cb 7c 87 3d
       -0.08795695 -0.31804854 0.5284923 0.06615599
000080 99 1d aa 3e 64 53 a6 3e 80 4f 0f be 98 df 18 3e
       0.33225706 0.32485497 -0.1399517 0.14929044
000090 73 de c6 3e 3d 05 ea bd 68 e7 3d 3f b8 91 69 be
       0.3884159 -0.114267804 0.7418122 -0.22809494
0000a0 35 0a 2a be ee c4 0d 3d b2 76 9e 3e 4a 42 97 bd
       -0.16605456 0.034611635 0.30949932 -0.073856905
0000b0 d2 22 44 be db a2 80 bd ea 04 f9 bd 2b dd e8 bc
       -0.19153908 -0.06281062 -0.121591404 -0.028425774
0000c0 0f 61 3b 3e 80 69 41 3d d1 c5 22 be 3e 83 8a be
       0.18298744 0.047219753 -0.15895773 -0.27053255
0000d0 e9 d7 87 3e ff 46 83 bd 22 3e 56 be 22 98 c3 3e
       0.26531914 -0.06410026 -0.2092214 0.38202006
0000e0 c8 6c ee bd 81 35 c8 bd e6 60 0b be 68 59 80 39
       -0.11641842 -0.0977583 -0.13611183 0.00024480675
0000f0 75 34 6c be 8c 28 29 bf 1f 90 8f 3d 87 eb 47 3e
       -0.23066886 -0.66077495 0.07009911 0.1952344
000100 0d bc 75 3d 79 5e 5d be 50 ba 50 3e 1a 6e 9e 3e
       0.059993792 -0.2161807 0.20383573 0.30943376
000110 b0 0c e8 3d ad 36 38 3e de 5d de 3e 32 49 d6 3c
       0.11330545 0.17989607 0.4343099 0.02615795
000120 2c 86 13 be 35 d0 05 bf 0e a0 af be bc 6f cf 3e
       -0.14406651 -0.52270824 -0.343018 0.40514934
000130 12 62 11 3e 62 d3 4f bd 85 75 ce be 78 e5 83 3e
       0.14197567 -0.0507387 -0.40324035 0.25761008
000140 9f 22 c6 3e b6 7c 04 3f b5 40 0e bf cc 32 30 3e
       0.3869829 0.51752794 -0.55567485 0.17206877
000150 49 a7 f7 3c 0d fd ff bc 48 da c9 3e dd de 1a 3c
       0.030231135 -0.031248594 0.39424348 0.009452549
000160 35 e6 ad bb 5f 2f 40 be 1c d8 96 3e 16 ec 04 3e
       -0.005306984 -0.1876807 0.29461753 0.12980685
000170 8f 08 b2 3d 8f f4 4c bc e1 88 37 3e 6f f4 2e bd
       0.08693039 -0.012509479 0.17923309 -0.04271358
000180 85 cc 86 be cc 34 99 3c c3 64 b8 3e ef 9a 38 bc
       -0.2632791 0.018701933 0.36014375 -0.011267408
000190 72 6d 85 be 99 11 42 be 3a 74 d7 3d 49 fd a2 3e
       -0.26060063 -0.18952025 0.10520215 0.31833866
0001a0 92 82 9c bd 2c 25 8a 3d 7e f7 42 bd 5b 68 3c 3e
       -0.07642092 0.06745371 -0.04759931 0.18399183
0001b0 9e 43 43 3d 63 da e6 be 68 7b 33 bd a8 d8 40 3c
       0.047671907 -0.4508849 -0.04381886 0.011770405
0001c0 b1 d1 dd 3e e5 b1 34 3e e0 d1 74 bd 32 e4 38 3e
       0.43324044 0.17645986 -0.059770465 0.180558
0001d0 bb f2 d8 3e ca 0e 5d 3e d2 6e f1 bd 61 27 0e bd
       0.4237269 0.21587673 -0.117887154 -0.034705523
0001e0 dc 24 d2 3d 11 cd 26 bc 4e bd ba 3e 53 7e 94 3d
       0.102609366 -0.010180728 0.36472553 0.07250657
0001f0 8a 57 de be 05 3d 85 3d c4 eb c0 3e 26 81 4a 3e
       -0.43426162 0.06505779 0.37679875 0.19775829
000200 02 f4 83 bc 43 ce 24 3f d8 ed 61 be 02 8c 60 3d
       -0.016107563 0.6437723 -0.22063386 0.05482102
000210 5e f3 a1 be 0a e7 69 be af 10 9d 3e 0e 12 f2 3e
       -0.31630987 -0.2284204 0.3067679 0.472794
000220 2e c6 17 3f 31 b0 8c 3d 17 03 24 3f e1 06 84 3e
       0.59286773 0.06869543 0.64067215 0.25786498
000230 c6 56 fc 3e 99 79 6d be 85 f7 3c be 4a 5b 8d 3e
       0.49284953 -0.23190917 -0.18453796 0.2760871
000240 95 21 be 3e a2 cb 86 ba 41 a4 43 3e 84 26 ba 3e
       0.37134996 -0.0010284076 0.19105627 0.3635751
000250 11 10 d8 be 9c ee 80 3e 64 4b 51 be 27 ce 81 be
       -0.42199758 0.25182045 -0.20438915 -0.25352594
000260 80 fb 59 3e 6f ca 1e be 58 27 a7 3e 64 af c3 bd
       0.21287346 -0.1550691 0.32647204 -0.095549375
000270 17 25 28 be 53 3d 34 3e f8 a7 e6 3c cb 04 fc 3d
       -0.16420399 0.17601518 0.028156266 0.12305602
000280 49 08 5d 3e f4 f0 40 3e 04 8a b8 3e e9 18 80 3d
       0.21585192 0.18841916 0.36042798 0.06254751
000290 43 95 3a 3b 12 0f 96 3d c9 ff d6 3e 69 30 1a 3d
       0.0028470315 0.07327093 0.41992024 0.037643824
0002a0 4c 9a 0a 3f 1c 2f 44 3e 3e 71 21 3e db 70 54 be
       0.5414169 0.19158596 0.15765855 -0.20746176
0002b0 3b d9 7a be 88 4e 90 bc f5 4e 1e bd 84 43 9d bd
       -0.2449693 -0.017615572 -0.038649518 -0.07678893
0002c0 2a 2e 48 bd 52 c0 02 3e c6 cb d0 3c 42 ab d8 3e
       -0.04887215 0.12768677 0.025487792 0.4231816
0002d0 41 64 b1 3d 9d 5e 74 3d 8a 13 4a bf 03 da 63 be
       0.086617 0.059660543 -0.78936064 -0.22251134
0002e0 3c 1d 03 be c3 e7 8d be 76 60 f1 3e e9 79 f3 be
       -0.12804121 -0.27715883 0.47143906 -0.47553948
0002f0 80 71 a4 3e 47 a5 59 bd 65 1f cb be 94 a7 dd be
       0.32117844 -0.053136136 -0.3967239 -0.43291914
000300 b9 8c 85 be 88 2c a7 3b 8d 01 65 be db ab 61 be
       -0.26083925 0.005101744 -0.22363873 -0.22038214
000310 96 ad 9c 3e d1 89 93 bd 61 38 4d be b8 bc 80 be
       0.30601186 -0.07204021 -0.20041038 -0.2514398
000320 d2 68 1f bf 6b 63 96 3d d8 dd 95 3e 85 90 4b 3e
       -0.6226932 0.07343181 0.29270816 0.19879349
000330 3f 87 be 3e 32 61 5e 3e 22 a2 ec 3c 70 39 49 be
       0.3721256 0.21716765 0.028885905 -0.19650817
000340 3b b7 f5 bc 3a c2 5c bd f9 53 fc bc 96 e4 d0 3b
       -0.029994598 -0.053896166 -0.03080176 0.006374906
000350 cd 94 49 3d e5 81 42 3e 97 e0 dd bd fb b9 08 3b
       0.049214173 0.18994863 -0.10833853 0.0020862806
000360 59 05 6b be c7 d3 bf 3b 92 ed 16 3e a5 36 25 bd
       -0.22951259 0.0058541032 0.14739063 -0.040335316
000370 dc 73 25 be c7 d4 fe bd cb 20 48 3e f5 b9 57 3d
       -0.16157478 -0.12442928 0.1954376 0.052667577
000380 f1 a4 5e be c9 c4 42 3e d3 01 b9 3e 71 42 72 3d
       -0.21742608 0.1902038 0.36134204 0.059145395
000390 fd ce 23 3e 2e 43 da 3d 51 9e 3b 3e 6b 9b bb be
       0.15996929 0.10657345 0.18322112 -0.36642012
0003a0 28 2a 0e be 4e 99 c7 3e 18 a2 a0 3e b8 49 ab 3e
       -0.13883269 0.3898415 0.31373668 0.3345468
0003b0 d0 63 b1 be a8 af 86 be 6b ed cd be 5b c3 c6 bd
       -0.34646463 -0.2630589 -0.40220198 -0.0970523
0003c0 0b 1e 65 3e e4 e8 ac b9 78 e4 ba be de 87 b4 3e
       0.22374742 -0.00032979914 -0.36502433 0.35259908
0003d0 18 e4 61 3e 01 77 76 3e 10 01 7c 3b b3 93 6e be
       0.22059667 0.24068834 0.0038452782 -0.2329853
0003e0 d2 b2 1f be fe 72 e0 bd e3 ff 31 bd 2f d4 09 3f
       -0.15595558 -0.10959433 -0.043456923 0.5383939
0003f0 28 cc 13 be 35 b7 6d bd a5 53 63 3d bd 4f b0 3e
       -0.14433348 -0.058036048 0.05549969 0.34435835

network_body._body_endoder.seq_layers.0.bias f4 [128]
000000 0e 7a 8f 3c 99 69 f8 bc 0b 72 44 bc 2c a6 81 bc
       0.017514255 -0.03032379 -0.011990081 -0.015826307
000010 34 f8 c5 bc 5b 0a 86 3c fa 64 dc ba a2 3d 1c 3d
       -0.024166204 0.01636236 -0.0016814761 0.038144715
000020 d9 ec c3 bc a7 72 ee bc 69 ce 6e 3c 73 04 54 bc
       -0.023916649 -0.029107405 0.014575579 -0.012940514
000030 c1 42 80 3c d6 b0 ed bc 4f 0f b9 bc d3 db bc 3c
       0.01565683 -0.029014986 -0.022590308 0.02305404
000040 e6 d7 f8 bb 2f 3c 26 3b d7 15 ed bc ab 56 bf bb
       -0.0075940965 0.0025365462 -0.028941078 -0.005839189
000050 12 d4 3f bd f1 88 2b 3b 06 4f ec ba d1 50 90 bc
       -0.046833105 0.0026174153 -0.0018028922 -0.017616661
000060 78 73 65 bc e0 7f f4 bb 40 a4 ee bc 57 3d c2 bc
       -0.014004581 -0.007461533 -0.029131055 -0.02371089
000070 21 84 3c 3b d3 d8 4d bc f5 64 1f bc 3a 13 ec 3c
       0.0028765278 -0.012563902 -0.00972866 0.028817762
000080 58 17 12 3a a9 ec 45 bc d3 44 f9 bc 7e 1e 24 bb
       0.00055729365 -0.01208035 -0.030428326 -0.0025042589
000090 c0 a6 19 bb be 3f 82 bc 46 c8 d7 bc 77 c7 42 bc
       -0.0023445338 -0.015899535 -0.026340615 -0.011888376
0000a0 e5 6f 82 bc fe 0e 0a 3d 1d 7a e3 bb 26 6a 34 bc
       -0.015922496 0.033705704 -0.0069420473 -0.011011636
0000b0 75 a4 48 3b a9 be a9 3c 75 f8 2f 3b 49 52 d7 bc
       0.0030615602 0.020720797 0.0026850973 -0.026284354
0000c0 54 ba 8a bc c5 3e 64 bc 11 65 30 bd a2 f7 48 bd
       -0.016934551 -0.013930981 -0.043065134 -0.049064286
0000d0 9e 96 dd 3c 6c ee 26 3d dc 51 92 bc 44 db ce bc
       0.027049359 0.04075472 -0.0178613 -0.025251038
0000e0 1f c5 fb bc 4e 63 ff bc 5b 9d ba ba 9e 55 40 bd
       -0.030733643 -0.031175282 -0.0014237569 -0.04695665
0000f0 b2 f7 bf 3c 8b 91 9f 3c aa e9 17 3d e0 89 1f 3b
       0.02343354 0.01947858 0.037088074 0.0024343655
000100 2c 3f f5 3c 6f 21 6a bc 81 a7 09 bd 60 48 fa bc
       0.02993735 -0.014290198 -0.03360701 -0.03055209
000110 40 51 4f bd 6b cb e6 bb b6 62 86 bc dc 41 a2 3b
       -0.050614595 -0.0070432923 -0.01640449 0.0049516987
000120 86 d7 4a bb 61 0f e2 3c f4 3d b9 bc 37 47 c3 bb
       -0.0030951216 0.027595224 -0.02261255 -0.005959417
000130 9e 56 bf bc d9 47 57 3b 19 ff 2b bc 0b d8 91 bc
       -0.023356732 0.003284922 -0.010497832 -0.017803213
000140 d3 03 cd bc 18 57 9e bc 9f 9d 3e bd 9a 3e 2c bc
       -0.025026238 -0.019328639 -0.046537038 -0.010512972
000150 8b 2a 05 bd 7e d1 25 bb da 71 89 bc d9 c0 0b bd
       -0.032511275 -0.002530187 -0.016777921 -0.03411946
000160 7b 95 31 bc 2b a8 9a bc 2e ec 2d bd aa 63 78 bd
       -0.010838862 -0.018879017 -0.042461567 -0.060641922
000170 04 68 05 bc ad 60 5c bc 52 97 87 3c 80 61 c7 3c
       -0.008142475 -0.013450784 0.016551647 0.024338484
000180 bf f2 e9 3a 51 aa d0 bc 9f 1f 86 3c 09 0a 9f bc
       0.0017848833 -0.025471838 0.0163725 -0.019413965
000190 84 18 9b bb ad 55 55 bd 2a 93 46 bd 1b 94 49 bc
       -0.004733147 -0.05208366 -0.04848019 -0.0123033775
0001a0 d9 18 cf 3b af 7d c5 3b ab e9 5f 3c 3b 93 f1 bc
       0.0063201007 0.0060269455 0.013666551 -0.02948915
0001b0 0d 0a 37 bd 3d 52 0d bd bb a4 6d bc f8 6d 78 bc
       -0.04468732 -0.034502257 -0.014504607 -0.015162937
0001c0 e5 9f bd bc c2 05 92 3b 7f 61 3f bb f0 b4 2f bd
       -0.023147533 0.004456253 -0.00292024 -0.042897165
0001d0 aa c3 43 bc 89 3d 49 bd 1d 9b 60 bd 3a d7 a9 bc
       -0.011948505 -0.04913095 -0.054835428 -0.02073251
0001e0 4c 3c e5 3b 03 17 97 3c aa a6 3e bc ab 21 72 3c
       0.0069957133 0.01844359 -0.0116364155 0.014778535
0001f0 04 fb 59 bb 31 f3 ab bc ef 64 98 bc c3 31 37 bc
       -0.003326119 -0.020989986 -0.018602816 -0.011181298

network_body._body_endoder.seq_layers.2.weight f4 [128, 128]
000000 01 eb bd bd a6 70 9a bc 71 cf 8d 3d 17 96 19 be
       -0.09273339 -0.018852543 0.06924332 -0.14998661
000010 c6 6c 29 3e e2 8d 85 3d 7f ac f2 3c 10 c8 31 bc
       0.165454 0.065212026 0.029623268 -0.010850921
000020 ff 9a 9d bd 87 8d 80 3d 27 6c b8 bd 32 b6 0b be
       -0.07695579 0.06276994 -0.090050034 -0.13643721
000030 bc c3 e6 bc 26 a2 1a bd 97 70 4e bd fc b3 fa bd
       -0.028169505 -0.037752293 -0.050400343 -0.122413605
000040 39 5e a8 3d 31 e6 e7 3c fd dd 24 bc b4 b5 17 3e
       0.082210965 0.028308006 -0.010062692 0.14815408
000050 7f d0 29 3e 14 8b 2a bc 3e 14 7d bb 37 32 f2 bb
       0.16583441 -0.010409135 -0.0038616802 -0.00739124
000060 eb 61 44 be b0 c8 0f 3c c9 6e 82 3d e9 3a a0 bc
       -0.19177978 0.008775875 0.06368787 -0.01955934
000070 2f c6 25 3e 20 f4 63 bc bf a2 3f bd b6 54 ad 3d
       0.16188882 -0.013913184 -0.046786066 0.08463423
000080 e6 25 99 bd cf 24 42 bc f3 d5 ee bc e1 22 43 bb
       -0.07477932 -0.011849596 -0.029154753 -0.0029775428
000090 4c bc 10 3d dd 06 aa 3d c0 3e 83 3d 47 7c 0f be
       0.035335824 0.0830209 0.06408453 -0.14012252
0000a0 c7 3b c6 39 84 29 a9 bb e1 3d 2e bd 38 b6 e4 3c
       0.0003781004 -0.0051624198 -0.04253948 0.02791892
0000b0 fa 92 2f bd 7b 77 0c be 57 88 3d 3d a8 20 df 3c
       -0.042864777 -0.13717453 0.046272602 0.027237251
0000c0 e1 a0 cc 3d da 97 c7 bd 4c 2b c7 bd 93 89 8d 3d
       0.09991623 -0.0974576 -0.09725055 0.06911006
0000d0 21 b2 cb bc 5c 09 56 bc 72 0b 56 bd f8 76 a5 bc
       -0.024865212 -0.013063755 -0.05225701 -0.02019833
0000e0 51 13 8f bb da 46 dd bc 6d 4b e5 3c 3a a2 b6 3b
       -0.0043663164 -0.027011324 0.027990067 0.005573538
0000f0 a0 83 31 be 44 e9 17 be 45 71 90 3b d3 f8 c5 bc
       -0.17335367 -0.14835078 0.004408034 -0.0241665
000100 c8 f1 4e 3d 94 7a 96 bb cd 39 ab bd aa 2c 0b 3e
       0.05052355 -0.004592249 -0.08360634 0.13591257
000110 d6 e1 c7 bd 50 e9 9e bd 04 8e 25 3c 4d d5 7e bd
       -0.09759872 -0.077593446 0.01010466 -0.06221514
000120 74 6e 37 3d b7 c6 b0 3d 47 16 c5 bd 6e 67 15 3d
       0.04478307 0.08631652 -0.0962339 0.03647559
000130 84 53 44 bd 05 e2 52 3d ef 97 97 bc 35 92 53 bc
       -0.04793121 0.05148508 -0.018505065 -0.012913276
000140 9c 82 cd 3b 3e dd f4 3d 5f d8 46 3e e5 cb de 3a
       0.0062716734 0.11956261 0.19418477 0.0016998021
000150 44 b8 20 3d 3c 6e 1c bd 31 fc f4 3d c8 4e 0a bd
       0.03923823 -0.038191065 0.11962164 -0.033766538
000160 7e e3 91 bc 15 25 72 bc e8 5d ed 3d 1b d6 46 be
       -0.017808672 -0.014779349 0.11590177 -0.19417612
000170 46 af b5 3d 09 e7 88 be f9 e1 18 3e fc 03 62 3d
       0.088713214 -0.26738766 0.14929952 0.05517958
000180 fb 16 4e 3d 25 d0 59 bd 84 2f 31 bd d0 27 1f 3d
       0.050314885 -0.053177018 -0.043258205 0.038856328
000190 8f 48 b3 bd bc 7e 97 bd 52 65 6b 3d 5b 82 1e 3c
       -0.08754074 -0.073972195 0.057469673 0.009674634
0001a0 18 93 19 3e e4 03 e1 bd 6f fd 98 bc 8a 3a ea 3d
       0.14997518 -0.1098707 -0.018675534 0.11436947
0001b0 36 05 f4 bd 23 c8 7b 3d 37 c3 2a bd b8 76 4a be
       -0.119150564 0.061470162 -0.041690078 -0.1977185
0001c0 26 0b 05 bb f9 43 82 3d 39 b5 11 3d 9d 33 ec bd
       -0.0020300834 0.06360621 0.035573218 -0.11533282
0001d0 a5 61 06 bd 14 2c ad bd 32 ae 21 3d 4f 29 ed bd
       -0.032807965 -0.08455673 0.039472766 -0.115801446
0001e0 33 15 1e 3c 20 b7 d6 bd 70 45 24 be 01 89 0b be
       0.009648609 -0.10484147 -0.16042113 -0.13626482
0001f0 db 25 08 3d 58 a7 1f 3d 49 e0 40 be cd 33 b7 3c
       0.033239227 0.03897795 -0.18835558 0.022363568
000200 6e dc 5e 3c 08 b6 6e 3d 91 e8 86 3d 10 bd 96 bd
       0.013602359 0.058279067 0.06587327 -0.073602796
000210 23 26 f2 bc 5c cf 87 3d c6 2a 9b bd 7a 48 f1 bb
       -0.0295592 0.066313475 -0.07576518 -0.007363376
000220 bb ec dd bd 20 39 8e 3c 4b 32 06 3d 04 da 7e bd
       -0.108361684 0.017361224 0.032762807 -0.062219635
000230 69 47 d9 3d 50 f3 17 3e ba be b5 3b e7 7f 3b 3d
       0.106093235 0.1483891 0.005546418 0.045776274
000240 86 6b 69 3c c1 56 f1 3c 9c e4 76 3e a5 ac 2a bd
       0.014246827 0.029460313 0.24110645 -0.041668553
000250 8d c3 fb 3d 6d dc 3f 3e 07 c0 8a bd 51 97 28 3d
       0.12293158 0.1873643 -0.067749076 0.04115993
000260 b3 b9 8a bc 32 f0 22 be 8b f4 cb 3d 90 c1 89 bd
       -0.016934251 -0.1591194 0.09958752 -0.06726372
000270 11 c5 4b be 47 8b fd bd 06 b3 dd bd 65 9c 95 3c
       -0.19899394 -0.12380081 -0.10825162 0.018263051
000280 c4 45 c8 bd 73 0c b7 bc a7 97 f0 bb 62 f0 68 bd
       -0.09778932 -0.022344803 -0.007342297 -0.056869872
000290 0e 10 9c 3d 4e 44 98 bd 96 2d 71 3d d4 9e d1 3c
       0.0762025 -0.07434903 0.058881365 0.02558843
0002a0 d2 d1 df bc f6 cc 94 3b 74 ff 25 bc 5b a2 4a bd
       -0.02732173 0.004541035 -0.010131706 -0.04947124
0002b0 86 4d fd bd 2f 08 9d bc 7e 23 07 be ff df 7a bc
       -0.12368302 -0.019168941 -0.13197133 -0.015312194
0002c0 8d 6c a4 3d a0 4b 40 bd 5b 05 09 be f0 10 2d bd
       0.08028517 -0.04694712 -0.13380949 -0.04225248
0002d0 0e da 8a bb b5 c0 04 3d 63 55 8a bc 52 d0 3b bd
       -0.00423742 0.032410342 -0.016886419 -0.045852967
0002e0 74 a8 76 bd 2c 81 ed 3c 9d a9 25 3d b5 84 86 3d
       -0.060219243 0.028992258 0.04044496 0.065682806
0002f0 25 06 8e 3c 47 aa ac 3c 9e da bb bd e6 8c e8 3d
       0.017336914 0.021077288 -0.09172557 0.11354999
000300 86 85 45 bd 1b 52 89 bd e9 a0 b8 bd 4f 44 4d bd
       -0.04822304 -0.067051135 -0.09015066 -0.050113972
000310 13 5e 41 3d 5a 68 26 3c 43 86 76 3d 47 91 8f 3d
       0.047208857 0.010156715 0.060186636 0.07010131
000320 b3 ce c9 bd bb ad be bd eb 95 90 3d 55 cb d5 bd
       -0.09853878 -0.0931048 0.070598446 -0.10439173
000330 07 3b 46 3e 3b 4f bc 3d 3b d6 c7 3c b9 11 d4 3d
       0.19358455 0.091947995 0.024394145 0.10354943
000340 03 a2 03 bd 35 c5 3f bd 8b 04 cc bc 64 d5 3c bd
       -0.03213693 -0.04681893 -0.02490451 -0.046101943
000350 9c e7 14 3e a1 69 2a bd ee 82 ac bd 96 e4 26 3d
       0.14541477 -0.04160464 -0.0842341 0.04074534
000360 0f 65 61 3d e6 f3 33 bd ae 76 b5 3d 68 14 a9 3a
       0.055028018 -0.04393377 0.08860527 0.0012899758
000370 1d a3 97 bb 42 7e 61 3d a9 8e 9e bb d1 10 59 3d
       -0.004627599 0.05505205 -0.0048387838 0.052994553
000380 75 d4 ef bd 87 d9 06 bd 58 92 67 3d 24 ea f3 bc
       -0.11710445 -0.032922294 0.05653605 -0.029774733
000390 89 5e 00 bd 83 df 72 bd 91 18 72 bd 49 5a 8c ba
       -0.031340156 -0.05929519 -0.05910546 -0.0010708059
0003a0 89 68 84 bd e7 fc c7 bd 1d ab 93 3d d9 50 3c bc
       -0.06465251 -0.09765034 0.07210372 -0.011493885
0003b0 1f 28 8c 3b 1e fa 2d bd d7 b4 5c be 87 5a 2c be
       0.0042772437 -0.04247486 -0.2155336 -0.16831408
0003c0 65 56 ee bd 96 31 c7 3d b2 47 03 3e 7c 2b 0a be
       -0.11637572 0.09726255 0.12820318 -0.1349315
0003d0 cf b1 9a 3d 44 03 8d 3d 07 b9 b6 bc 60 19 3d 3c
       0.075534455 0.068853885 -0.022305025 0.011541694
0003e0 5d 00 3a 3d 17 67 b9 bd 62 bb 30 3c 10 4f 5a bd
       0.045410503 -0.09052866 0.010786863 -0.053298056
0003f0 93 f1 01 bd c1 38 bf bc d2 aa 6e 3c b1 b4 88 bd
       -0.031724524 -0.023342492 0.014567094 -0.06675089

network_body._body_endoder.seq_layers.2.bias f4 [128]
000000 53 84 1d bd 45 39 3b bc 49 b8 b4 3b 71 a4 fd bc
       -0.038456272 -0.011427228 0.0055151326 -0.0309622
000010 0e 56 6a 3c 96 29 0a bc e8 22 87 bc aa 94 71 39
       0.014302744 -0.008432766 -0.016496137 0.00023038933
000020 38 7c d3 bc 8f 5e 7d bc d3 fc c9 bc ce a3 c6 bc
       -0.025816068 -0.015464439 -0.024656689 -0.02424803
000030 82 2d 4a bd 39 cd 74 bc 6e ed 34 bd c0 ab 23 3c
       -0.049359806 -0.014941507 -0.044171743 0.009989679
000040 44 7b b1 bb 5c a9 5c bc 16 b8 24 bc 51 62 a2 bc
       -0.0054163057 -0.013468113 -0.010053655 -0.019822272
000050 ef 0a bb ba 99 43 1b bd 9b 13 a6 bc da 51 d9 bc
       -0.0014270226 -0.037906263 -0.02027302 -0.026528288
000060 7c 2f 85 3b b4 c0 3c bc 0b e8 42 bd d2 61 2c 3b
       0.0040644985 -0.011520553 -0.047584575 0.0026303423
000070 97 c2 ba bc a7 cf 1a bd 91 fa 6d bc 90 de 5f bc
       -0.022797866 -0.03779569 -0.014525072 -0.013663903
000080 05 07 d8 bc 85 8f a7 bc 4a 08 38 bd 53 3e b0 3c
       -0.026370535 -0.020454178 -0.04492978 0.021514094
000090 69 e2 2d bc ef 5b ab bb 9c f1 87 bc b7 0d d5 bc
       -0.010613062 -0.005229465 -0.0165947 -0.026007516
0000a0 ad e0 45 bb bc 6d 0c 3c 7b 5d 1b bd 6c e8 87 bb
       -0.0030193732 0.008571085 -0.037930947 -0.00414758
0000b0 68 52 3d 3a 45 c3 84 3c 0a 82 20 bc a5 5f 9b bc
       0.00072220573 0.016206393 -0.009796629 -0.018966505
0000c0 23 48 d2 3c 06 bc 78 bc 7a b4 ca bc ed 0d 1e 3c
       0.025669163 -0.015181547 -0.024744261 0.009646875
0000d0 7e 70 ab 3a 67 10 34 ba 33 fa eb 3a e4 9b f5 3b
       0.001307979 -0.0006868899 0.0018003642 0.0074953903
0000e0 e4 2d 9a 3c 38 4f 9a bc bf 83 81 bc 00 70 39 bc
       0.01882071 -0.018836603 -0.015809892 -0.011318207
0000f0 01 71 5a bc 58 55 a4 bc d4 16 ca bc 31 e7 dc bc
       -0.013332606 -0.020060226 -0.024669088 -0.02696571
000100 10 78 89 bc 76 95 7b bc 24 b0 ea 3b dc b3 51 bc
       -0.016780883 -0.0153554585 0.007162111 -0.0127992295
000110 5c 97 1b bc 68 d9 b5 bc 4c 7c 30 bd 14 e6 e6 3c
       -0.009496536 -0.022198394 -0.04308729 0.028185882
000120 9b 69 67 bc 64 2d 53 bc fb e9 f6 ba 3c 27 20 bc
       -0.014124299 -0.01288924 -0.0018838042 -0.009774979
000130 cd 3a 66 bc aa c6 d0 3a 86 d9 83 bc 4b 4b 05 bc
       -0.014052105 0.0015928347 -0.016094934 -0.008135627
000140 11 d1 2b bd 31 f2 11 bc b2 5d 0b bd 15 85 f4 bb
       -0.041947428 -0.008907841 -0.0340249 -0.0074621537
000150 74 18 45 3c 38 c7 4d bc 08 d9 96 bc 22 d5 7c bd
       0.012029756 -0.0125597045 -0.018414035 -0.061726697
000160 06 6e 09 3d 1f 14 2d bc b8 fa de 3b d9 0d 91 bc
       0.033552192 -0.010563879 0.0068047903 -0.017706798
000170 00 ce b9 bc 42 44 a2 bc a6 33 09 bd e3 36 e8 bc
       -0.022681236 -0.019807938 -0.03349652 -0.028346485
000180 b3 24 07 bd 59 34 0b 3d 89 07 e0 bc b6 30 8a bc
       -0.032993983 0.03398547 -0.027347343 -0.01686893
000190 c7 cd 93 bc f9 32 94 bc 2e 7b b3 bc 05 a6 24 bc
       -0.018042458 -0.018090712 -0.021909323 -0.010049348
0001a0 e2 03 4e bc f4 c0 2d bb 5e 6d 01 bc 29 09 21 bc
       -0.012574168 -0.0026512714 -0.00789961 -0.009828844
0001b0 50 2d c8 bb b6 35 f9 bc 3b 01 e0 3c d7 7d 1b bc
       -0.0061089173 -0.03042112 0.027344337 -0.009490452
0001c0 32 d1 5a 3c b7 58 8f bb 9e 04 79 3c ff 76 a0 bc
       0.01335554 -0.0043745893 0.015198855 -0.019587992
0001d0 24 37 2c bc b3 1d 23 bc b9 89 38 bb 03 9f b2 bc
       -0.010511193 -0.009955811 -0.002815826 -0.021804338
0001e0 45 12 71 3b e8 e3 17 bc ab 2d 90 3b 0a a4 83 3b
       0.003678457 -0.009270646 0.0043999753 0.0040173577
0001f0 b0 83 2c bc 6a 01 b8 bc cf 25 1a bd ae 64 81 bc
       -0.010529444 -0.022461612 -0.037633713 -0.015795078

network_body._body_endoder.seq_layers.4.weight f4 [128, 128]
000000 b4 cc 39 3e fe 1e b3 bd 44 23 46 be 8d 41 ce bd
       0.18144494 -0.08746146 -0.1934939 -0.100710966
000010 d9 73 a0 bd 10 cd 0c be ff 23 43 3d 98 bf ef bc
       -0.07834596 -0.137501 0.04764175 -0.029266164
000020 8f 00 09 3e 48 1c cb bd 82 8f ff bd 08 23 0d bd
       0.1337912 -0.099175036 -0.12478544 -0.034457237
000030 d0 e4 46 bd c9 c4 86 3d ab 6b d4 3d 1b 04 da bc
       -0.048558056 0.065805025 0.103720985 -0.026613286
000040 7a bc d3 bd c2 0e 04 be dc e3 56 3c 1a a0 55 3d
       -0.103386834 -0.12896255 0.013115849 0.052154638
000050 78 68 37 bd e8 ee 81 bc 21 91 c7 bd 8d 00 0c be
       -0.044777364 -0.01586099 -0.09744478 -0.13672085
000060 69 5b 90 3d 32 eb 91 3e db 75 80 ba d3 4c f3 3b
       0.07048685 0.28499752 -0.0009800749 0.0074249296
000070 33 ad ee bd a1 89 10 be bd cf 72 bd 41 c0 f7 bd
       -0.11654129 -0.14115001 -0.059280146 -0.120972164
000080 fb 6b 05 bd 5a ad b1 bd ae 93 51 bd 93 b0 af 3c
       -0.03257368 -0.08675642 -0.05116623 0.021446502
000090 5c 21 b6 3c ca 78 a2 bc 0f 1a 8f bd 93 31 e0 bc
       0.022232704 -0.019832987 -0.06987392 -0.027367389
0000a0 ef 6c f2 bc 20 29 9e bd 27 80 87 bd 22 c1 14 be
       -0.02959296 -0.07722688 -0.0661624 -0.145268
0000b0 83 a3 2c 3e d9 9e 41 3e 6c 51 36 be e3 b2 c6 bd
       0.1685925 0.18908252 -0.17804497 -0.09702089
0000c0 87 e9 c1 3d e9 4b 02 be 75 04 b2 bd 63 0b 55 3d
       0.0946837 -0.1272427 -0.08692256 0.052012812
0000d0 c4 8c fd 3d 4f 84 74 3e a4 23 2b bd 0a 84 a2 bb
       0.123803645 0.23878597 -0.041782036 -0.004959588
0000e0 2b e7 be bd 7b db 64 3e ea 7a 00 be 73 7c 43 bd
       -0.093214355 0.2234935 -0.12546888 -0.047726106
0000f0 e4 45 2d 3b 89 13 87 3d 21 2f 87 bd 51 99 48 bc
       0.0026439363 0.06595523 -0.06600786 -0.012243585
000100 f1 16 37 bd 80 94 20 bc 29 7d b4 3d 11 a2 4a bd
       -0.044699613 -0.00980103 0.08812935 -0.049470965
000110 f6 97 d7 3d 21 30 03 be 72 fb 84 3d e7 d7 f7 3d
       0.10527031 -0.12811328 0.06493272 0.12101727
000120 95 2f 4b 3d 91 41 41 3d 8f 31 63 3c b4 ee 31 bd
       0.049605925 0.04718167 0.013866796 -0.043440536
000130 41 70 3b 3c be bd a8 bd 0c fd f7 3c 88 c4 9d 3d
       0.011440338 -0.082393155 0.03027203 0.07703501
000140 68 cb e1 3c 63 3d dd 3d 65 bd 7a 3d 5b f4 28 be
       0.027562812 0.10802724 0.061215777 -0.16499464
000150 f3 eb c9 bd 34 29 a9 3d e2 89 7d bd 9f 25 52 3d
       -0.09859457 0.08259812 -0.061899073 0.05130541
000160 4f 61 59 bd 4e c2 02 3e 06 a7 60 bd cd f8 26 3e
       -0.053071316 0.12769434 -0.054846786 0.16305847
000170 ae 32 1f 3e 4d 26 17 be b9 2b 07 bd a1 20 46 3e
       0.15546677 -0.14760704 -0.03300068 0.19348384
000180 91 4b 1a bd 18 f9 a8 bc 9d b0 1a 3d d9 06 42 be
       -0.037669722 -0.02062659 0.037766088 -0.18947925
000190 e9 3a a9 bd 6a 36 13 3d f6 61 ec 3d 38 cf ab 3c
       -0.08263189 0.035940565 0.11542122 0.020972833
0001a0 9b 2c 9f 3d 09 6f b2 3c 82 b7 0f bd 5e 84 85 bb
       0.0777218 0.021781461 -0.035087116 -0.0040746173
0001b0 91 27 a3 3b 68 b3 0e bd 5c a5 fa bc 6f b9 e1 bd
       0.004979082 -0.034839064 -0.030596428 -0.11021697
0001c0 a0 25 24 be 14 a5 87 3d 0e d0 4a bb 3d c1 b0 bd
       -0.16029978 0.06623283 -0.0030946764 -0.08630607
0001d0 e8 c6 a2 3d 70 a9 b2 bd 51 96 31 3d 82 18 de bd
       0.079480946 -0.08723724 0.043356244 -0.10844518
0001e0 27 e8 2b 3b 58 37 16 be 38 71 a9 3d a2 3a c9 3d
       0.0026230903 -0.1466955 0.08273548 0.098256364
0001f0 a8 b7 1a be 93 f0 a2 3d af b9 17 bb 8f b7 8a 3d
       -0.15109122 0.07956042 -0.0023151448 0.06773292
000200 4a cd af 3d ce 63 30 bc dd d2 0c bc 41 29 53 bd
       0.08584078 -0.010765983 -0.008595196 -0.051553015
000210 73 70 af ba 2e e2 be bd b4 92 85 bd 7e ee 02 be
       -0.0013384953 -0.09320484 -0.06522122 -0.1278629
000220 d9 a2 39 3c 1e 10 a8 3d 7b 7c 16 be bd c4 7b 3d
       0.01133033 0.08206199 -0.14695923 0.06146692
000230 fd c7 da bc 43 32 bc 3c b5 50 43 3c 51 62 29 3e
       -0.02670669 0.022973185 0.0119210975 0.16541411
000240 a9 bd 16 3e 78 3f 00 be 4e d1 f5 3d c1 3b 66 be
       0.14720787 -0.12524211 0.12002812 -0.22483732
000250 50 5e 48 3d e8 68 2b be 0e 38 ca bd 3f f3 d3 bd
       0.04891807 -0.16739237 -0.09873973 -0.1034913
000260 0b a2 8e 3d 70 15 04 bd 85 fe 0c 3c d5 15 72 be
       0.06964501 -0.032247007 0.008605604 -0.23641141
000270 b5 37 f6 bc c1 5d 19 3e 42 3f e3 bd 3a f2 64 bd
       -0.03005586 0.1497717 -0.1109605 -0.055895068
000280 f5 55 dd 3d 14 c8 10 3e 60 b6 19 3d 22 55 46 3c
       0.10807411 0.14138824 0.037527442 0.012105258
000290 01 0a 18 be ad 44 cd 3d b5 d9 db 3c fb 88 ab 3d
       -0.14847566 0.100228645 0.02683721 0.08375736
0002a0 4f 8b dd 3d f4 10 dd bc 85 1c bc bd 0b fa 9e bc
       0.10817587 -0.026985623 -0.09185127 -0.01940634
0002b0 b8 8e 76 bd 25 f7 09 3e 0c 07 e5 3d ef 0e 09 bb
       -0.0601947 0.13473184 0.11182985 -0.0020913442
0002c0 05 f8 a0 bd 3b bf 9f bd 11 8e 80 bd 86 31 9e bd
       -0.07859806 -0.07800146 -0.06277097 -0.077242896
0002d0 57 13 bd 3d 3e 4b 66 3c 46 85 85 3e 49 57 16 be
       0.092322044 0.014056025 0.26078242 -0.14681734
0002e0 a3 94 59 be e1 7f 28 bd 8c 51 c6 bd 9d 96 b1 3d
       -0.21248107 -0.04113758 -0.096835226 0.08671305
0002f0 4a 45 c4 bc 74 ad 12 be 3a 6d f0 bc b4 81 ef 3c
       -0.02395882 -0.1432398 -0.029348958 0.029236652
000300 8c 4d 02 3e 2e 33 37 be 75 ce 1d 3e c1 99 48 bd
       0.12724894 -0.17890617 0.15410788 -0.048974756
000310 ca fc 11 3e f4 ea 83 bb fa 1d 37 bd 62 67 e7 bd
       0.14256588 -0.0040258113 -0.044706322 -0.112990156
000320 a0 67 3f 3c 44 cf aa 3d c1 7e 74 be ce 06 6d bd
       0.011682421 0.08340314 -0.23876478 -0.057867818
000330 7e ba 10 3e 8a 79 23 3d e5 70 0f be cc f3 92 bd
       0.14133641 0.03991083 -0.1400791 -0.07175407
000340 06 e8 fd bc eb ce fa bd 12 3f 1f 3d ed 3a 8d bc
       -0.030994426 -0.12246498 0.038878508 -0.017240012
000350 6f be 8b 3d 1b 5a 01 bd b3 ec 3c bc 4b 81 38 3d
       0.06823432 -0.031580072 -0.011531043 0.04504518
000360 34 66 09 be 69 a6 02 3c 0b 7a 93 bd 3d 00 04 3e
       -0.13417894 0.007974246 -0.07201012 0.12890716
000370 49 4c b4 3d fd 94 ab bc 1e c1 f8 3d 96 58 c5 3d
       0.08803613 -0.020945067 0.12146209 0.09636037
000380 16 db 88 3c f4 29 65 be e7 75 8c 3b 44 23 3e 3d
       0.01670603 -0.22379285 0.004286516 0.04642035
000390 b0 d6 bf 3d 81 99 be 3d 39 f0 0a be d5 ec 85 3d
       0.0936712 0.09306622 -0.135682 0.06539313
0003a0 77 9e 88 3c 79 06 35 be 4c a0 72 bb 78 57 5d bd
       0.016677124 -0.1767825 -0.0037021814 -0.054038495
0003b0 97 1d 9a 3c 57 3c 90 bd 16 a8 06 be 84 e4 97 bd
       0.018812938 -0.07042759 -0.13150057 -0.07416633
0003c0 32 43 7d bd cd a4 ba 3c c5 53 2a 3d 94 ba cf bd
       -0.06183166 0.022783661 0.041583795 -0.10143009
0003d0 b7 ba 1e bd 07 88 91 bc 50 aa 06 3b 79 e4 f1 3d
       -0.038752284 -0.017765058 0.0020548292 0.11811156
0003e0 ca de ce 3d f9 66 fe 3d 7e a0 a8 3d 13 da 01 be
       0.101010874 0.12421984 0.082337365 -0.12680845
0003f0 a3 f6 f1 bb cc 0a 05 3e 3b bf 07 3e c8 8f e2 bd
       -0.0073841377 0.129924 0.13256542 -0.1106258

network_body._body_endoder.seq_layers.4.bias f4 [128]
000000 c4 a4 a4 bb d5 1f c7 bc ba d4 4b 3c ce 85 05 3c
       -0.0050245244 -0.02430717 0.012440855 0.008149577
000010 c5 79 47 3c 71 d8 33 bb 42 83 10 bc 9c f5 66 bb
       0.012175028 -0.0027442242 -0.008820357 -0.003524161
000020 59 72 50 bc 86 be 78 3c e3 1f ab bc c7 dd e3 bb
       -0.012722575 0.015182143 -0.020889228 -0.006953928
000030 15 44 61 bb 91 b3 82 bc 90 bd 8c bc af 41 e2 bc
       -0.0034372855 -0.015954765 -0.017180234 -0.027619211
000040 3f 09 f8 bb 77 1a 28 3c 75 da 75 bb 85 60 26 bc
       -0.0075694616 0.010260216 -0.0037514244 -0.010154848
000050 82 6b 2d bc 18 4f 08 bc da a4 31 bc 5a 5c cd bc
       -0.010584714 -0.008319639 -0.010842526 -0.02506845
000060 01 95 df bb f6 f5 03 bc 37 e0 1e 3b 43 8a 0e bd
       -0.0068231826 -0.008054247 0.002424253 -0.034799825
000070 eb 5f 4b bc 60 5b c8 bc 3f 26 12 bd 1b ef be bc
       -0.012413005 -0.024457633 -0.035681006 -0.023307374
000080 cc c4 9a bc 71 77 59 3c 41 6d 33 3c 10 03 9c bb
       -0.018892668 0.013273106 0.010951341 -0.0047611073
000090 bd e6 3b bb 18 3d ca bb df d6 b1 bc e5 4a 5b 3c
       -0.0028671466 -0.0061718337 -0.021708904 0.0133845555
0000a0 11 8c cc bc 78 aa 85 3a 6f 64 9e 3b 26 81 e9 bb
       -0.024969133 0.0010197898 0.00483375 -0.0071259914
0000b0 7d 06 c2 bc cc dc 5e bc 03 94 e7 3b b0 31 38 3c
       -0.023684734 -0.013602447 0.007067205 0.011242315
0000c0 6c 0e e9 bb 18 6e 19 3c e8 88 a0 3b 1f 42 51 bc
       -0.007112315 0.009364627 0.004899133 -0.012772112
0000d0 72 18 21 3c b2 01 01 ba 4a d7 b0 bb 97 84 c9 ba
       0.009832488 -0.0004921212 -0.005396758 -0.0015374598
0000e0 d2 3a 26 bc cf 4e b0 bc 46 57 1f 3c c6 41 81 bb
       -0.01014586 -0.021521954 0.009725397 -0.0039446084
0000f0 74 bc cf bc c7 de c8 3b ac 5e 8a bc c4 4d b7 bb
       -0.025358416 0.0061300728 -0.016890846 -0.005593987
000100 eb 70 3f 3c c2 27 e1 bb c4 2f c7 bb 65 40 dd bc
       0.011684637 -0.0068711946 -0.006078692 -0.027008245
000110 7a 12 83 bc 4b d9 d1 b9 dc dd b1 bc 1e 64 1e 3b
       -0.016000021 -0.00040025482 -0.021712236 0.0024168561
000120 02 55 d1 bc 81 c5 09 3c 4e f4 b8 bc ad 97 36 3c
       -0.02555323 0.008408905 -0.022577431 0.011144561
000130 e0 a6 7a bc b6 2a 15 bc 51 5c c5 bc cd 89 a5 ba
       -0.015298575 -0.009104421 -0.024091871 -0.0012629569
000140 f9 50 50 bc 0a 9d e8 3c fe 26 af bc 2e e6 90 bb
       -0.012714618 0.028395195 -0.021380898 -0.004421971
000150 d4 6d ac bc 4c 81 20 bb d4 c4 fb 3b 9f 5c a2 bc
       -0.021048464 -0.002449113 0.007683376 -0.019819556
000160 df 41 59 bc 0d b8 1c 3c da 84 4f bc db 3a 1d b8
       -0.013260334 0.0095653655 -0.012665952 -3.748653e-05
000170 ba 54 1a 3c 51 83 a1 bc a1 76 fc bb c9 d5 80 bb
       0.009419614 -0.019715937 -0.0077045714 -0.003931735
000180 4e a8 0b bd b4 99 1c bc 32 ad e8 bc 18 19 0f bc
       -0.034096055 -0.00955813 -0.028402898 -0.00873401
000190 b7 27 51 bc 60 ea 85 bb 42 d4 57 bc 7c 53 5d bc
       -0.012765816 -0.0040867776 -0.013173165 -0.013508674
0001a0 ef 9d 91 3c 9b 2d e3 ba 69 bb 79 bb b5 36 d0 bc
       0.017775504 -0.0017332317 -0.003810609 -0.025416711
0001b0 07 05 6e 3c b1 67 a7 bc 77 df d7 3b eb 00 93 bc
       0.014527566 -0.020435186 0.0065879184 -0.017944774
0001c0 b6 a2 cd bb 94 d4 f8 ba 10 2e 64 3b f7 de 32 bd
       -0.0062755 -0.0018984252 0.0034817494 -0.043669667
0001d0 7f 6c a7 bc 79 09 90 bc 83 bf cb 3b de 40 c1 bc
       -0.020437477 -0.017582642 0.0062178983 -0.023590501
0001e0 55 8f 4d 3c 1b 20 73 bc 5b 96 cf 3b 81 30 26 bb
       0.01254638 -0.0148391975 0.0063350624 -0.00253585
0001f0 94 88 5a 3c d6 63 10 bc a7 55 08 bc dc 9b f9 3b
       0.013338227 -0.008812865 -0.008321202 0.007617457

action_model._continuous_distribution.log_sigma f4 [1, 3]
000000 63 75 03 bd 99 4a 97 bd 00 a6 e3 bc
       -0.03209437 -0.07387275 -0.027789116

action_model._continuous_distribution.mu.weight f4 [3, 128]
000000 5e 3f 09 3d 26 f3 66 3c 8c df 19 bc 40 23 66 3c
       0.033507697 0.014096057 -0.009391677 0.01404649
000010 55 f7 f0 3c ed 74 85 bc 77 03 79 3d 1e 6e 27 3d
       0.029414812 -0.016291106 0.06079432 0.0408765
000020 11 95 25 bb 27 96 42 3b b3 7b e7 3c c7 94 02 bd
       -0.0025265852 0.0029691549 0.028257227 -0.031880166
000030 5d 57 27 bc da 0f e1 bb 85 ae 57 3b f9 a1 c5 bb
       -0.0102137 -0.0068683447 0.0032910418 -0.0060312715
000040 b7 8b 2b 3d 10 7e bd bc 2a a4 b2 3b bf e2 57 bb
       0.04188129 -0.0231314 0.005451699 -0.0032941548
000050 f1 e4 b0 bc 0d c1 e3 3c 01 c3 15 bd 45 10 6e 3b
       -0.021593543 0.027802015 -0.036562923 0.0036325615
000060 6a 30 68 3c 9a 77 a6 3b 54 80 ab 3a f7 82 16 3c
       0.014171699 0.0050801756 0.0013084509 0.009186498
000070 f1 3e 93 bc a3 1b f1 3b d7 54 d6 ba a3 76 70 bc
       -0.017974349 0.007358031 -0.0016352189 -0.014676723
000080 8d 0b 47 3c 1d 29 5e 3c 0a 30 9e bc 42 19 f4 3b
       0.01214875 0.013559607 -0.019310016 0.0074493
000090 58 e1 a4 bc 04 6c 98 bc 21 89 0b bc 35 20 bf 3b
       -0.020126984 -0.018606193 -0.008516581 0.005832697
0000a0 6e db fb bb 2f 1d ba bc b9 b5 7a bc 14 32 6e 3c
       -0.00768607 -0.022718994 -0.015302115 0.014538307
0000b0 3b 60 22 3b ac 34 39 bb 08 d5 3a ba 78 98 07 3d
       0.0024776596 -0.0028260155 -0.0007127081 0.03310439
0000c0 4f ff 14 3d 51 c2 cb bc 40 66 2e bd 87 fd b0 bc
       0.036376294 -0.02487293 -0.042577982 -0.021605266
0000d0 ab 02 a3 3b e7 6a 0b 3c 2c ff 42 bd 7c bd 0a bd
       0.0049746833 0.008509374 -0.047606632 -0.033872113
0000e0 31 f6 a5 bc 42 95 33 3c 3d 61 cc 3b b1 fa a8 bb
       -0.020258995 0.010960879 0.0062371776 -0.005156838
0000f0 8b 00 b3 bc 1d c2 14 bd 7b 57 15 bc 09 d1 84 3b
       -0.021850845 -0.036317933 -0.009115095 0.0040532392
000100 f0 00 d3 bb aa 67 55 3b 0e 13 ad bb 60 fc 22 3c
       -0.0064393207 0.003256301 -0.0052818125 0.009947866
000110 59 a8 32 bb 85 40 21 3d 3f d3 fd b8 94 25 a3 bc
       -0.0027260988 0.03936817 -0.00012103328 -0.01991538
000120 de 73 5c bc 13 da 50 bc 88 60 5b 3c 1b 6c 04 3c
       -0.013455359 -0.012747305 0.013389714 0.008082415
000130 37 70 8f 3c 77 e5 2a 3c 86 5d 95 3c 4e 9f 09 3c
       0.017509563 0.010430685 0.018233072 0.008399798
000140 b2 67 70 3c 0b 17 d4 bc 90 2a 4d 3c 79 82 36 3d
       0.01467316 -0.025889894 0.012522355 0.044558022
000150 2b 85 27 3d 7f a8 45 bc 46 bf 14 3d cc ab 33 bc
       0.040898483 -0.012064098 0.036315225 -0.010966253
000160 cd e9 7b 3c 38 66 98 bc fc d5 ae bc 78 25 28 bc
       0.015375567 -0.01860343 -0.02134227 -0.0102628395
000170 3b b3 a8 b9 d3 bc a9 3c c3 77 3d bb 3c 08 1a 3d
       -0.00032176994 0.020719921 -0.0028910495 0.03760551
000180 df 5e 30 3c fb 72 2e 3c ed fe f7 3c 59 71 21 bc
       0.0107648065 0.010647531 0.030272925 -0.009853684
000190 43 ea ef bb d2 2b 0f 3c 53 fe dc 3c d4 c0 ea 3c
       -0.0073216273 0.008738475 0.02697674 0.0286564
0001a0 b2 67 5a bc c5 05 0b bd 0f b8 c9 bc 36 50 52 3b
       -0.013330387 -0.03394105 -0.024623899 0.0032091266
0001b0 15 a9 54 ba 10 bd a0 3b 27 df f3 3b 67 bc d4 3c
       -0.00081123534 0.0049053505 0.0074423733 0.025968743
0001c0 84 a6 8d 3b ee 77 51 bd 3d 51 a0 3c 1b a0 38 3c
       0.0043228287 -0.051139764 0.019569987 0.011268641
0001d0 bc d5 46 bc 2e a9 27 3c ff 37 98 3c 91 c8 ab 3c
       -0.012135919 0.010233207 0.018581389 0.020969661
0001e0 64 a2 df 3c 0b 70 b3 3b ce 3e e0 bc 51 f8 85 3a
       0.027299114 0.005476003 -0.027373698 0.0010221099
0001f0 de 38 3a bd 7f ad ed 3a 1c d6 91 3c ce ff 2a 3b
       -0.04546439 0.0018133371 0.01780229 0.0026092413
000200 3d a3 1f bc 17 87 f6 bc 72 cd ac bc 27 9b 07 3d
       -0.009743509 -0.030093713 -0.021094058 0.03310695
000210 ca 1a 38 bd 14 c0 ae 3c 21 e4 38 bd 6e 1c 97 3c
       -0.044947423 0.021331824 -0.045139436 0.018446174
000220 5f b7 94 3b f8 25 8a 3c 27 e2 11 bd d2 c0 18 bd
       0.004538461 0.016863808 -0.035616066 -0.037293263
000230 18 74 03 3c ec d9 db 3b 43 36 23 3c a6 2c 00 3c
       0.008023284 0.006709328 0.0099616675 0.007823145
000240 0d 82 d6 bc 7a dc 25 bd 83 15 d4 3a b0 63 85 bc
       -0.02618506 -0.040493466 0.0016180727 -0.016282886
000250 3b 3e 21 3d ba 37 76 3a 22 66 9d bc 78 c3 60 ba
       0.03936599 0.0009392459 -0.01921374 -0.0008574049
000260 19 8a aa 3b 18 6d 16 ba 92 a7 47 3c 9d 4c 9e 3b
       0.005204451 -0.0005738302 0.012185948 0.0048309104
000270 5e 87 67 bc 97 9e f4 ba b2 18 2f bc d9 b2 33 bc
       -0.014131395 -0.0018662986 -0.01068704 -0.010967934
000280 ec f9 d4 3c 86 ca 03 bd 87 c1 2f bd 75 d3 22 bd
       0.025998078 -0.032175563 -0.04290917 -0.039752442
000290 73 60 45 bc aa d3 32 3c d8 0f 74 3c 3d 18 39 3c
       -0.012046921 0.010914722 0.014896356 0.011297283
0002a0 6b 60 80 bb f5 e3 11 bc 22 9b f0 3c 04 0e a8 bc
       -0.003917744 -0.008904447 0.029370848 -0.020514496
0002b0 e9 91 61 bc dc 35 bf bb dc cf 92 3c 6c c4 81 3c
       -0.013767698 -0.005835278 0.01792138 0.015840732
0002c0 17 16 80 3c ed 15 35 3d 34 b6 99 39 39 33 69 3c
       0.015635533 0.044210363 0.00029318186 0.014233404
0002d0 bf 2f 8d 3c 8d d7 33 bd 01 ff 79 3c ff 04 e7 bc
       0.017234681 -0.043906737 0.015258552 -0.028200625
0002e0 b3 30 3f bc 82 02 87 bc 0f fa d5 3c ed e7 2e 3c
       -0.011669326 -0.016480688 0.026120214 0.010675413
0002f0 02 3b 81 3c f4 22 12 bd a1 ba 9c bc 96 5c 76 3c
       0.015775207 -0.035677865 -0.01913196 0.015036723
000300 ff 92 02 3c 0c f7 15 bd ac a0 0d bd 46 2f 21 bc
       0.007969617 -0.036612555 -0.034577057 -0.009837931
000310 97 56 93 3b d5 5c 64 3c e0 ae 4e 3c e3 57 e5 bc
       0.0044964063 0.0139381485 0.012614936 -0.02799601
000320 26 48 a2 3b c9 42 3a bc 01 2f a4 bc 14 98 d0 3c
       0.0049524484 -0.011368462 -0.020041944 0.025463142
000330 b2 76 a3 3b 75 a0 1a bd 94 58 43 3c 44 27 27 3c
       0.004988515 -0.03775068 0.011922974 0.010202233
000340 f3 86 fe bb 2e 93 93 3c bd f7 8b bb cf 14 dd 3c
       -0.007767552 0.018014517 -0.004271476 0.026987461
000350 9d d5 b5 bc ec f7 54 bc 99 44 22 3d 8d d0 80 3b
       -0.022196585 -0.012998562 0.0396162 0.003931111
000360 91 15 c4 3c dc bb 28 3c 49 17 be 3c 41 fe 3e bd
       0.023936065 0.010298695 0.023204463 -0.046629194
000370 08 f7 c6 3c c6 02 c5 3b a0 a8 0a bd 43 17 52 bd
       0.024287716 0.0060122935 -0.03385222 -0.051291715
000380 8c 6f a4 3b 08 f2 04 3c f3 c7 b6 bc 9d 38 a5 bc
       0.0050181802 0.008114345 -0.02231214 -0.020168597
000390 b4 84 97 bc 1b 70 d1 3b 52 04 f7 bc f2 6e 65 bb
       -0.018495895 0.006391538 -0.030153427 -0.0035008756
0003a0 99 42 05 3d 6f 93 9b 3c 93 77 51 bb f8 6b 80 3a
       0.032534216 0.0189912 -0.003196214 0.0009797802
0003b0 73 dc 19 3d 1d 00 64 bc 79 16 23 bd 83 13 c6 bc
       0.037563752 -0.013916043 -0.039816353 -0.024179226
0003c0 79 30 11 3a 95 9a fa 3a c1 49 71 3c 99 d8 73 bc
       0.0005538534 0.0019119555 0.014727057 -0.014883184
0003d0 48 c6 64 bc 55 3c 0d bd 98 cc 08 3c 31 a4 7b bc
       -0.01396329 -0.034481365 0.00834956 -0.0153589705
0003e0 f4 06 21 3d 62 6a 6e 3c 82 71 80 bb 7a 3a 0d 3d
       0.03931327 0.014551731 -0.003919781 0.034479596
0003f0 62 99 0f bb ef 2c 2a 3d d4 c1 5b bc d3 98 1b bc
       -0.0021911492 0.04154676 -0.013412911 -0.009496885

action_model._continuous_distribution.mu.bias f4 [3]
000000 83 8d 7d bb 9d a6 6a 3c e1 6d 28 bc
       -0.0038689084 0.01432195 -0.010280103

onnx::Div_56 f4 [16]
000000 c9 15 f0 3e 40 14 6d 3d 26 12 50 3e 20 f2 ff 3e
       0.4689162 0.05788064 0.20319423 0.49989414
000010 7c cc 34 3f 1a 0a 0d 3f b1 34 05 3f 97 1d cd 3e
       0.7062452 0.5509354 0.52033526 0.40061638
000020 2b 14 0f 3e 70 28 2b 3e 06 b9 3a 3e 1c 21 1e 3e
       0.13972537 0.16714644 0.18234643 0.15442318
000030 bf fe 2d 3e eb 2b 30 3e 2c 6e 48 3e e3 2e 36 3e
       0.16991709 0.17204253 0.19573277 0.17791323
